Namespace(batchSize=32, beta1=0.5, cuda=True, decay=0.5, lr=0.0002, ngpu=1, niter=10000, outpath='./outputs', seed=666)
===> Building model
NetS(
  (convblock1): Sequential(
    (0): Conv2d(3, 64, kernel_size=(7, 7), stride=(2, 2), padding=(3, 3), bias=False)
    (1): LeakyReLU(negative_slope=0.2, inplace=True)
  )
  (convblock1_1): ResidualBlock(
    (conv1): Conv2d(64, 128, kernel_size=(1, 1), stride=(1, 1), bias=False)
    (norm1): BatchNorm2d(128, eps=1e-05, momentum=0.1, affine=True, track_running_stats=True)
    (relu1): LeakyReLU(negative_slope=0.2, inplace=True)
    (conv2): Conv2d(128, 128, kernel_size=(3, 3), stride=(1, 1), padding=(1, 1), bias=False)
    (norm2): BatchNorm2d(128, eps=1e-05, momentum=0.1, affine=True, track_running_stats=True)
    (relu2): LeakyReLU(negative_slope=0.2, inplace=True)
    (conv3): Conv2d(128, 64, kernel_size=(1, 1), stride=(1, 1), bias=False)
    (norm3): BatchNorm2d(64, eps=1e-05, momentum=0.1, affine=True, track_running_stats=True)
    (relu3): LeakyReLU(negative_slope=0.2, inplace=True)
  )
  (convblock2): Sequential(
    (0): Conv2d(64, 128, kernel_size=(5, 5), stride=(2, 2), padding=(2, 2), bias=False)
    (1): BatchNorm2d(128, eps=1e-05, momentum=0.1, affine=True, track_running_stats=True)
    (2): LeakyReLU(negative_slope=0.2, inplace=True)
  )
  (convblock2_1): ResidualBlock(
    (conv1): Conv2d(128, 256, kernel_size=(1, 1), stride=(1, 1), bias=False)
    (norm1): BatchNorm2d(256, eps=1e-05, momentum=0.1, affine=True, track_running_stats=True)
    (relu1): LeakyReLU(negative_slope=0.2, inplace=True)
    (conv2): Conv2d(256, 256, kernel_size=(3, 3), stride=(1, 1), padding=(1, 1), bias=False)
    (norm2): BatchNorm2d(256, eps=1e-05, momentum=0.1, affine=True, track_running_stats=True)
    (relu2): LeakyReLU(negative_slope=0.2, inplace=True)
    (conv3): Conv2d(256, 128, kernel_size=(1, 1), stride=(1, 1), bias=False)
    (norm3): BatchNorm2d(128, eps=1e-05, momentum=0.1, affine=True, track_running_stats=True)
    (relu3): LeakyReLU(negative_slope=0.2, inplace=True)
  )
  (convblock3): Sequential(
    (0): Conv2d(128, 256, kernel_size=(5, 5), stride=(2, 2), padding=(2, 2), bias=False)
    (1): BatchNorm2d(256, eps=1e-05, momentum=0.1, affine=True, track_running_stats=True)
    (2): LeakyReLU(negative_slope=0.2, inplace=True)
  )
  (convblock3_1): ResidualBlock(
    (conv1): Conv2d(256, 512, kernel_size=(1, 1), stride=(1, 1), bias=False)
    (norm1): BatchNorm2d(512, eps=1e-05, momentum=0.1, affine=True, track_running_stats=True)
    (relu1): LeakyReLU(negative_slope=0.2, inplace=True)
    (conv2): Conv2d(512, 512, kernel_size=(3, 3), stride=(1, 1), padding=(1, 1), bias=False)
    (norm2): BatchNorm2d(512, eps=1e-05, momentum=0.1, affine=True, track_running_stats=True)
    (relu2): LeakyReLU(negative_slope=0.2, inplace=True)
    (conv3): Conv2d(512, 256, kernel_size=(1, 1), stride=(1, 1), bias=False)
    (norm3): BatchNorm2d(256, eps=1e-05, momentum=0.1, affine=True, track_running_stats=True)
    (relu3): LeakyReLU(negative_slope=0.2, inplace=True)
  )
  (convblock4): Sequential(
    (0): Conv2d(256, 512, kernel_size=(5, 5), stride=(2, 2), padding=(2, 2), bias=False)
    (1): BatchNorm2d(512, eps=1e-05, momentum=0.1, affine=True, track_running_stats=True)
    (2): LeakyReLU(negative_slope=0.2, inplace=True)
  )
  (convblock4_1): ResidualBlock(
    (conv1): Conv2d(512, 1024, kernel_size=(1, 1), stride=(1, 1), bias=False)
    (norm1): BatchNorm2d(1024, eps=1e-05, momentum=0.1, affine=True, track_running_stats=True)
    (relu1): LeakyReLU(negative_slope=0.2, inplace=True)
    (conv2): Conv2d(1024, 1024, kernel_size=(3, 3), stride=(1, 1), padding=(1, 1), bias=False)
    (norm2): BatchNorm2d(1024, eps=1e-05, momentum=0.1, affine=True, track_running_stats=True)
    (relu2): LeakyReLU(negative_slope=0.2, inplace=True)
    (conv3): Conv2d(1024, 512, kernel_size=(1, 1), stride=(1, 1), bias=False)
    (norm3): BatchNorm2d(512, eps=1e-05, momentum=0.1, affine=True, track_running_stats=True)
    (relu3): LeakyReLU(negative_slope=0.2, inplace=True)
  )
  (convblock5): Sequential(
    (0): Conv2d(512, 512, kernel_size=(5, 5), stride=(2, 2), padding=(2, 2), bias=False)
    (1): BatchNorm2d(512, eps=1e-05, momentum=0.1, affine=True, track_running_stats=True)
    (2): LeakyReLU(negative_slope=0.2, inplace=True)
  )
  (convblock5_1): ResidualBlock(
    (conv1): Conv2d(512, 1024, kernel_size=(1, 1), stride=(1, 1), bias=False)
    (norm1): BatchNorm2d(1024, eps=1e-05, momentum=0.1, affine=True, track_running_stats=True)
    (relu1): LeakyReLU(negative_slope=0.2, inplace=True)
    (conv2): Conv2d(1024, 1024, kernel_size=(3, 3), stride=(1, 1), padding=(1, 1), bias=False)
    (norm2): BatchNorm2d(1024, eps=1e-05, momentum=0.1, affine=True, track_running_stats=True)
    (relu2): LeakyReLU(negative_slope=0.2, inplace=True)
    (conv3): Conv2d(1024, 512, kernel_size=(1, 1), stride=(1, 1), bias=False)
    (norm3): BatchNorm2d(512, eps=1e-05, momentum=0.1, affine=True, track_running_stats=True)
    (relu3): LeakyReLU(negative_slope=0.2, inplace=True)
  )
  (convblock6): Sequential(
    (0): Conv2d(512, 1024, kernel_size=(4, 4), stride=(2, 2), padding=(1, 1), bias=False)
    (1): BatchNorm2d(1024, eps=1e-05, momentum=0.1, affine=True, track_running_stats=True)
    (2): LeakyReLU(negative_slope=0.2, inplace=True)
  )
  (convblock6_1): Sequential(
    (0): Conv2d(1024, 1024, kernel_size=(1, 1), stride=(1, 1), bias=False)
    (1): BatchNorm2d(1024, eps=1e-05, momentum=0.1, affine=True, track_running_stats=True)
    (2): LeakyReLU(negative_slope=0.2, inplace=True)
  )
  (convblock7): Sequential(
    (0): Conv2d(1024, 2048, kernel_size=(3, 3), stride=(2, 2), padding=(1, 1), bias=False)
    (1): BatchNorm2d(2048, eps=1e-05, momentum=0.1, affine=True, track_running_stats=True)
    (2): LeakyReLU(negative_slope=0.2, inplace=True)
  )
  (convblock8): Sequential(
    (0): Conv2d(2048, 512, kernel_size=(1, 1), stride=(1, 1), bias=False)
    (1): BatchNorm2d(512, eps=1e-05, momentum=0.1, affine=True, track_running_stats=True)
    (2): LeakyReLU(negative_slope=0.2, inplace=True)
  )
  (deconvblock1): Sequential(
    (0): ConvTranspose2d(512, 2048, kernel_size=(1, 1), stride=(1, 1), bias=False)
    (1): BatchNorm2d(2048, eps=1e-05, momentum=0.1, affine=True, track_running_stats=True)
    (2): ReLU(inplace=True)
  )
  (deconvblock2): Sequential(
    (0): Conv2d(4096, 1024, kernel_size=(3, 3), stride=(1, 1), padding=(1, 1), bias=False)
    (1): BatchNorm2d(1024, eps=1e-05, momentum=0.1, affine=True, track_running_stats=True)
    (2): ReLU(inplace=True)
  )
  (deconvblock2_1): Sequential(
    (0): Conv2d(1024, 1024, kernel_size=(1, 1), stride=(1, 1), bias=False)
    (1): BatchNorm2d(1024, eps=1e-05, momentum=0.1, affine=True, track_running_stats=True)
    (2): ReLU(inplace=True)
  )
  (deconvblock3): Sequential(
    (0): Conv2d(2048, 512, kernel_size=(3, 3), stride=(1, 1), padding=(1, 1), bias=False)
    (1): BatchNorm2d(512, eps=1e-05, momentum=0.1, affine=True, track_running_stats=True)
    (2): ReLU(inplace=True)
  )
  (deconvblock3_1): ResidualBlock_D(
    (conv1): Conv2d(512, 1024, kernel_size=(1, 1), stride=(1, 1), bias=False)
    (norm1): BatchNorm2d(1024, eps=1e-05, momentum=0.1, affine=True, track_running_stats=True)
    (relu1): ReLU(inplace=True)
    (conv2): Conv2d(1024, 1024, kernel_size=(3, 3), stride=(1, 1), padding=(1, 1), bias=False)
    (norm2): BatchNorm2d(1024, eps=1e-05, momentum=0.1, affine=True, track_running_stats=True)
    (relu2): ReLU(inplace=True)
    (conv3): Conv2d(1024, 512, kernel_size=(1, 1), stride=(1, 1), bias=False)
    (norm3): BatchNorm2d(512, eps=1e-05, momentum=0.1, affine=True, track_running_stats=True)
    (relu3): ReLU(inplace=True)
  )
  (deconvblock4): Sequential(
    (0): GlobalConvBlock(
      (conv_l1): Conv2d(1024, 512, kernel_size=(7, 1), stride=(1, 1), padding=(3, 0))
      (conv_l2): Conv2d(512, 512, kernel_size=(1, 7), stride=(1, 1), padding=(0, 3))
      (conv_r1): Conv2d(1024, 512, kernel_size=(1, 7), stride=(1, 1), padding=(0, 3))
      (conv_r2): Conv2d(512, 512, kernel_size=(7, 1), stride=(1, 1), padding=(3, 0))
    )
    (1): BatchNorm2d(512, eps=1e-05, momentum=0.1, affine=True, track_running_stats=True)
    (2): ReLU(inplace=True)
  )
  (deconvblock4_1): ResidualBlock_D(
    (conv1): Conv2d(512, 1024, kernel_size=(1, 1), stride=(1, 1), bias=False)
    (norm1): BatchNorm2d(1024, eps=1e-05, momentum=0.1, affine=True, track_running_stats=True)
    (relu1): ReLU(inplace=True)
    (conv2): Conv2d(1024, 1024, kernel_size=(3, 3), stride=(1, 1), padding=(1, 1), bias=False)
    (norm2): BatchNorm2d(1024, eps=1e-05, momentum=0.1, affine=True, track_running_stats=True)
    (relu2): ReLU(inplace=True)
    (conv3): Conv2d(1024, 512, kernel_size=(1, 1), stride=(1, 1), bias=False)
    (norm3): BatchNorm2d(512, eps=1e-05, momentum=0.1, affine=True, track_running_stats=True)
    (relu3): ReLU(inplace=True)
  )
  (deconvblock5): Sequential(
    (0): GlobalConvBlock(
      (conv_l1): Conv2d(1024, 256, kernel_size=(7, 1), stride=(1, 1), padding=(3, 0))
      (conv_l2): Conv2d(256, 256, kernel_size=(1, 7), stride=(1, 1), padding=(0, 3))
      (conv_r1): Conv2d(1024, 256, kernel_size=(1, 7), stride=(1, 1), padding=(0, 3))
      (conv_r2): Conv2d(256, 256, kernel_size=(7, 1), stride=(1, 1), padding=(3, 0))
    )
    (1): BatchNorm2d(256, eps=1e-05, momentum=0.1, affine=True, track_running_stats=True)
    (2): ReLU(inplace=True)
  )
  (deconvblock5_1): ResidualBlock_D(
    (conv1): Conv2d(256, 512, kernel_size=(1, 1), stride=(1, 1), bias=False)
    (norm1): BatchNorm2d(512, eps=1e-05, momentum=0.1, affine=True, track_running_stats=True)
    (relu1): ReLU(inplace=True)
    (conv2): Conv2d(512, 512, kernel_size=(3, 3), stride=(1, 1), padding=(1, 1), bias=False)
    (norm2): BatchNorm2d(512, eps=1e-05, momentum=0.1, affine=True, track_running_stats=True)
    (relu2): ReLU(inplace=True)
    (conv3): Conv2d(512, 256, kernel_size=(1, 1), stride=(1, 1), bias=False)
    (norm3): BatchNorm2d(256, eps=1e-05, momentum=0.1, affine=True, track_running_stats=True)
    (relu3): ReLU(inplace=True)
  )
  (deconvblock6): Sequential(
    (0): GlobalConvBlock(
      (conv_l1): Conv2d(512, 128, kernel_size=(9, 1), stride=(1, 1), padding=(4, 0))
      (conv_l2): Conv2d(128, 128, kernel_size=(1, 9), stride=(1, 1), padding=(0, 4))
      (conv_r1): Conv2d(512, 128, kernel_size=(1, 9), stride=(1, 1), padding=(0, 4))
      (conv_r2): Conv2d(128, 128, kernel_size=(9, 1), stride=(1, 1), padding=(4, 0))
    )
    (1): BatchNorm2d(128, eps=1e-05, momentum=0.1, affine=True, track_running_stats=True)
    (2): ReLU(inplace=True)
  )
  (deconvblock6_1): ResidualBlock_D(
    (conv1): Conv2d(128, 256, kernel_size=(1, 1), stride=(1, 1), bias=False)
    (norm1): BatchNorm2d(256, eps=1e-05, momentum=0.1, affine=True, track_running_stats=True)
    (relu1): ReLU(inplace=True)
    (conv2): Conv2d(256, 256, kernel_size=(3, 3), stride=(1, 1), padding=(1, 1), bias=False)
    (norm2): BatchNorm2d(256, eps=1e-05, momentum=0.1, affine=True, track_running_stats=True)
    (relu2): ReLU(inplace=True)
    (conv3): Conv2d(256, 128, kernel_size=(1, 1), stride=(1, 1), bias=False)
    (norm3): BatchNorm2d(128, eps=1e-05, momentum=0.1, affine=True, track_running_stats=True)
    (relu3): ReLU(inplace=True)
  )
  (deconvblock7): Sequential(
    (0): GlobalConvBlock(
      (conv_l1): Conv2d(256, 64, kernel_size=(9, 1), stride=(1, 1), padding=(4, 0))
      (conv_l2): Conv2d(64, 64, kernel_size=(1, 9), stride=(1, 1), padding=(0, 4))
      (conv_r1): Conv2d(256, 64, kernel_size=(1, 9), stride=(1, 1), padding=(0, 4))
      (conv_r2): Conv2d(64, 64, kernel_size=(9, 1), stride=(1, 1), padding=(4, 0))
    )
    (1): BatchNorm2d(64, eps=1e-05, momentum=0.1, affine=True, track_running_stats=True)
    (2): ReLU(inplace=True)
  )
  (deconvblock7_1): ResidualBlock_D(
    (conv1): Conv2d(64, 128, kernel_size=(1, 1), stride=(1, 1), bias=False)
    (norm1): BatchNorm2d(128, eps=1e-05, momentum=0.1, affine=True, track_running_stats=True)
    (relu1): ReLU(inplace=True)
    (conv2): Conv2d(128, 128, kernel_size=(3, 3), stride=(1, 1), padding=(1, 1), bias=False)
    (norm2): BatchNorm2d(128, eps=1e-05, momentum=0.1, affine=True, track_running_stats=True)
    (relu2): ReLU(inplace=True)
    (conv3): Conv2d(128, 64, kernel_size=(1, 1), stride=(1, 1), bias=False)
    (norm3): BatchNorm2d(64, eps=1e-05, momentum=0.1, affine=True, track_running_stats=True)
    (relu3): ReLU(inplace=True)
  )
  (deconvblock8): Sequential(
    (0): GlobalConvBlock(
      (conv_l1): Conv2d(128, 64, kernel_size=(11, 1), stride=(1, 1), padding=(5, 0))
      (conv_l2): Conv2d(64, 64, kernel_size=(1, 11), stride=(1, 1), padding=(0, 5))
      (conv_r1): Conv2d(128, 64, kernel_size=(1, 11), stride=(1, 1), padding=(0, 5))
      (conv_r2): Conv2d(64, 64, kernel_size=(11, 1), stride=(1, 1), padding=(5, 0))
    )
    (1): BatchNorm2d(64, eps=1e-05, momentum=0.1, affine=True, track_running_stats=True)
    (2): ReLU(inplace=True)
  )
  (deconvblock8_1): ResidualBlock_D(
    (conv1): Conv2d(64, 128, kernel_size=(1, 1), stride=(1, 1), bias=False)
    (norm1): BatchNorm2d(128, eps=1e-05, momentum=0.1, affine=True, track_running_stats=True)
    (relu1): ReLU(inplace=True)
    (conv2): Conv2d(128, 128, kernel_size=(3, 3), stride=(1, 1), padding=(1, 1), bias=False)
    (norm2): BatchNorm2d(128, eps=1e-05, momentum=0.1, affine=True, track_running_stats=True)
    (relu2): ReLU(inplace=True)
    (conv3): Conv2d(128, 64, kernel_size=(1, 1), stride=(1, 1), bias=False)
    (norm3): BatchNorm2d(64, eps=1e-05, momentum=0.1, affine=True, track_running_stats=True)
    (relu3): ReLU(inplace=True)
  )
  (deconvblock9): Sequential(
    (0): Conv2d(64, 1, kernel_size=(5, 5), stride=(1, 1), padding=(2, 2), bias=False)
  )
)
NetC(
  (convblock1): Sequential(
    (0): Conv2d(3, 64, kernel_size=(7, 7), stride=(2, 2), padding=(3, 3), bias=False)
    (1): LeakyReLU(negative_slope=0.2, inplace=True)
  )
  (convblock1_1): Sequential(
    (0): GlobalConvBlock(
      (conv_l1): Conv2d(64, 128, kernel_size=(13, 1), stride=(1, 1), padding=(6, 0))
      (conv_l2): Conv2d(128, 128, kernel_size=(1, 13), stride=(1, 1), padding=(0, 6))
      (conv_r1): Conv2d(64, 128, kernel_size=(1, 13), stride=(1, 1), padding=(0, 6))
      (conv_r2): Conv2d(128, 128, kernel_size=(13, 1), stride=(1, 1), padding=(6, 0))
    )
    (1): BatchNorm2d(128, eps=1e-05, momentum=0.1, affine=True, track_running_stats=True)
    (2): LeakyReLU(negative_slope=0.2, inplace=True)
  )
  (convblock2): Sequential(
    (0): Conv2d(64, 128, kernel_size=(5, 5), stride=(2, 2), padding=(2, 2), bias=False)
    (1): BatchNorm2d(128, eps=1e-05, momentum=0.1, affine=True, track_running_stats=True)
    (2): LeakyReLU(negative_slope=0.2, inplace=True)
  )
  (convblock2_1): Sequential(
    (0): GlobalConvBlock(
      (conv_l1): Conv2d(128, 256, kernel_size=(11, 1), stride=(1, 1), padding=(5, 0))
      (conv_l2): Conv2d(256, 256, kernel_size=(1, 11), stride=(1, 1), padding=(0, 5))
      (conv_r1): Conv2d(128, 256, kernel_size=(1, 11), stride=(1, 1), padding=(0, 5))
      (conv_r2): Conv2d(256, 256, kernel_size=(11, 1), stride=(1, 1), padding=(5, 0))
    )
    (1): BatchNorm2d(256, eps=1e-05, momentum=0.1, affine=True, track_running_stats=True)
    (2): LeakyReLU(negative_slope=0.2, inplace=True)
  )
  (convblock3): Sequential(
    (0): Conv2d(128, 256, kernel_size=(4, 4), stride=(2, 2), padding=(1, 1), bias=False)
    (1): BatchNorm2d(256, eps=1e-05, momentum=0.1, affine=True, track_running_stats=True)
    (2): LeakyReLU(negative_slope=0.2, inplace=True)
  )
  (convblock3_1): Sequential(
    (0): GlobalConvBlock(
      (conv_l1): Conv2d(256, 512, kernel_size=(9, 1), stride=(1, 1), padding=(4, 0))
      (conv_l2): Conv2d(512, 512, kernel_size=(1, 9), stride=(1, 1), padding=(0, 4))
      (conv_r1): Conv2d(256, 512, kernel_size=(1, 9), stride=(1, 1), padding=(0, 4))
      (conv_r2): Conv2d(512, 512, kernel_size=(9, 1), stride=(1, 1), padding=(4, 0))
    )
    (1): BatchNorm2d(512, eps=1e-05, momentum=0.1, affine=True, track_running_stats=True)
    (2): LeakyReLU(negative_slope=0.2, inplace=True)
  )
  (convblock4): Sequential(
    (0): Conv2d(256, 512, kernel_size=(4, 4), stride=(2, 2), padding=(1, 1), bias=False)
    (1): BatchNorm2d(512, eps=1e-05, momentum=0.1, affine=True, track_running_stats=True)
    (2): LeakyReLU(negative_slope=0.2, inplace=True)
  )
  (convblock4_1): Sequential(
    (0): GlobalConvBlock(
      (conv_l1): Conv2d(512, 1024, kernel_size=(7, 1), stride=(1, 1), padding=(3, 0))
      (conv_l2): Conv2d(1024, 1024, kernel_size=(1, 7), stride=(1, 1), padding=(0, 3))
      (conv_r1): Conv2d(512, 1024, kernel_size=(1, 7), stride=(1, 1), padding=(0, 3))
      (conv_r2): Conv2d(1024, 1024, kernel_size=(7, 1), stride=(1, 1), padding=(3, 0))
    )
    (1): BatchNorm2d(1024, eps=1e-05, momentum=0.1, affine=True, track_running_stats=True)
    (2): LeakyReLU(negative_slope=0.2, inplace=True)
  )
  (convblock5): Sequential(
    (0): Conv2d(512, 512, kernel_size=(4, 4), stride=(2, 2), padding=(1, 1), bias=False)
    (1): BatchNorm2d(512, eps=1e-05, momentum=0.1, affine=True, track_running_stats=True)
    (2): LeakyReLU(negative_slope=0.2, inplace=True)
  )
  (convblock5_1): Sequential(
    (0): Conv2d(1024, 2048, kernel_size=(3, 3), stride=(1, 1), padding=(1, 1), bias=False)
    (1): BatchNorm2d(2048, eps=1e-05, momentum=0.1, affine=True, track_running_stats=True)
    (2): LeakyReLU(negative_slope=0.2, inplace=True)
  )
  (convblock6): Sequential(
    (0): Conv2d(512, 512, kernel_size=(3, 3), stride=(2, 2), padding=(1, 1), bias=False)
    (1): BatchNorm2d(512, eps=1e-05, momentum=0.1, affine=True, track_running_stats=True)
    (2): LeakyReLU(negative_slope=0.2, inplace=True)
  )
)
===> Epoch[0](63/63): Batch Dice: 0.7818
===> Epoch[0](63/63): G_Loss: 0.0534
===> Epoch[0](63/63): D_Loss: -0.0530
mIoU: 0.6187
Dice: 0.7366
Learning Rate: 0.000100
Max mIoU: 0.6187
===> Epoch[1](63/63): Batch Dice: 0.7703
===> Epoch[1](63/63): G_Loss: 0.0393
===> Epoch[1](63/63): D_Loss: -0.0392
…
